…
scrolled":true,"execution":{"iopub.status.busy":"2024-11-16T14:02:02.018781Z","iopub.execute_input":"2024-11-16T14:02:02.019136Z","iopub.status.idle":"2024-11-16T14:02:02.284548Z","shell.execute_reply.started":"2024-11-16T14:02:02.019104Z","shell.execute_reply":"2024-11-16T14:02:02.283528Z"},"trusted":true},"outputs":[{"name":"stdout","text":"Model: \"sequential_2\"\n_________________________________________________________________\nLayer (type)                 Output Shape              Param #   \n=================================================================\nkeras_layer_1 (KerasLayer)   (None, 1280)              4226432   \n_________________________________________________________________\ndense_5 (Dense)              (None, 512)               655872    \n_________________________________________________________________\ndropout_3 (Dropout)          (None, 512)               0         \n_________________________________________________________________\ndense_6 (Dense)              (None, 256)               131328    \n_________________________________________________________________\ndropout_4 (Dropout)          (None, 256)               0         \n_________________________________________________________________\ndense_7 (Dense)              (None, 120)               30840     \n=================================================================\nTotal params: 5,044,472\nTrainable params: 818,040\nNon-trainable params: 4,226,432\n_________________________________________________________________\n","output_type":"stream"}],"execution_count":34},{"cell_type":"code","source":"len(model.trainable_variables)","metadata":{"execution":{"iopub.status.busy":"2024-11-16T14:02:
…
b.execute_input":"2024-11-18T14:27:31.171252Z","iopub.status.idle":"2024-11-18T14:27:38.702930Z","shell.execute_reply.started":"2024-11-18T14:27:31.171218Z","shell.execute_reply":"2024-11-18T14:27:38.702026Z"},"trusted":true},"outputs":[{"name":"stdout","text":"Creating train & validation data batches... BATCH SIZE=32\nData pipeline created.\nModel: \"sequential_1\"\n_________________________________________________________________\nLayer (type)                 Output Shape              Param #   \n=================================================================\nconv2d_3 (Conv2D)            (None, 222, 222, 32)      896       \n_________________________________________________________________\nmax_pooling2d_3 (MaxPooling2 (None, 111, 111, 32)      0         \n_________________________________________________________________\nconv2d_4 (Conv2D)            (None, 109, 109, 64)      18496     \n_________________________________________________________________\nmax_pooling2d_4 (MaxPooling2 (None, 54, 54, 64)        0         \n_________________________________________________________________\nconv2d_5 (Conv2D)            (None, 52, 52, 128)       73856     \n_________________________________________________________________\nmax_pooling2d_5 (MaxPooling2 (None, 26, 26, 128)       0         \n_________________________________________________________________\nflatten_1 (Flatten)          (None, 86528)             0         \n_________________________________________________________________\ndense_2 (Dense)              (None, 512)               44302848  \n_________________________________________________________________\ndropout_1 (Dropout)          (None, 512)               0         \n_________________________________________________________________\ndense_3 (Dense)              (None, 10)                5130      \n=================================================================\nTotal params: 44,401,226\nTrainable params: 44,401,226\nNon-trainable params: 0\n_________________________________________________________________\n44/44 [==============================] - 4s 47ms/step - loss: 2.4732 - accuracy: 0.1216 - val_loss: 2.2549 - val_accuracy: 0.1257\nModel saved to 'dog_breed_model1.h5'.\n","outp
…
_bull', 'Chihuahua', 'Doberman', 'Labrador_retriever', 'Pomeranian', 'Rottweiler', 'beagle', 'golden_retriever', 'standard_poodle']\nCreating train & validation data batches... BATCH SIZE=32\nData pipeline created.\nModel: \"model_1\"\n_________________________________________________________________\nLayer (type)                 Output Shape              Param #   \n=================================================================\ninput_2 (InputLayer)         [(None, 224, 224, 3)]     0         \n_________________________________________________________________\nkeras_layer_1 (KerasLayer)   (None, 2048)              23564800  \n_________________________________________________________________\ndense_3 (Dense)              (None, 512)               1049088   \n_________________________________________________________________\ndropout_2 (Dropout)          (None, 512)               0         \n_________________________________________________________________\ndense_4 (Dense)              (None, 256)               131328    \n_________________________________________________________________\ndropout_3 (Dropout)          (None, 256)               0         \n_________________________________________________________________\ndense_5 (Dense)              (None, 10)                2570      \n=================================================================\nTotal params: 24,747,786\nTrainable params: 1,182,986\nNon-trainable params: 23,564,800\n_________________________________________________________________\nEpoch 1/20\n44/44 [==============================] - 17s 110ms/step - loss: 1.2873 - accuracy: 0.6273 - val_loss: 0.4272 - val_accuracy: 0.8971\nEpoch 2/20\n44/44 [=====
…
